Zomato-Task/data.pth (torch_old, 5170 bytes, 6 tensors)

l1.weight f4 [8, 76]
0	0x3f1faa58	0.623693
1	0x3ee1efe7	0.44128343
2	0xbe8a427e	-0.27003855
3	0xbf0fda5e	-0.56192577
4	0xbf27965b	-0.654638
5	0x3e8bf156	0.27332562
6	0x3f0853a7	0.53252643
7	0x3e639930	0.22226405
8	0x3ec61310	0.3868642
9	0x3e81c9ff	0.25349423
10	0x3ec6783b	0.38763604
11	0xbecefb68	-0.40426183
12	0x3f6c6fb1	0.9235793
13	0x3eba16a0	0.36345387
14	0x3e22bf32	0.15893248
15	0x3e38e954	0.18057758
16	0xbeca7fae	-0.39550537
17	0xbdf4bb20	-0.11949754
18	0x3e5248b0	0.2053554
19	0xbae38e0e	-0.0017361061
20	0xbd21eeb3	-0.039534282
21	0xbeb73e05	-0.35789505
22	0x3d3212e8	0.04347506
23	0xbed4e366	-0.4157974
24	0x3f4c9269	0.79910904
25	0xbe71c4eb	-0.23610274
26	0xbf4f9c03	-0.8109743
27	0x3f28fed7	0.66013855
28	0xbf4f9412	-0.8108531
29	0xbf4fa2ee	-0.81107986
30	0xbf4f9d38	-0.8109927
31	0x3ebd7981	0.37006763
32	0xbda994e8	-0.08280355
33	0xbe5b75a4	-0.21431595
34	0xbd19355e	-0.03740441
35	0xbdd15c72	-0.10222711
36	0x3e9afcc4	0.3027097
37	0xbc927cd6	-0.017881792
38	0xbddd3011	-0.108001836
39	0x3eef9992	0.46796852
40	0xbe2b659e	-0.16737983
41	0x3eaa4a87	0.33259985
42	0x3eb0d217	0.34535286
43	0xbe08f9e5	-0.13376577
44	0xbd9e2e8f	-0.07723724
45	0xbde0295e	-0.1094539
46	0x3ee9f0a0	0.45691395
47	0xbd812c56	-0.063072845
48	0xbdd62520	-0.104563
49	0x3e97b561	0.2963057
50	0x3eb385da	0.35063058
51	0x3edd2809	0.43194607
52	0x3e037af5	0.12839873
53	0x3e83045b	0.2558926
54	0x3e83c0f4	0.2573315
55	0x3e23aa1a	0.15982857
56	0x3e2e877b	0.17043869
57	0x3c797d9d	0.015227702
58	0x3ec16bc9	0.37777546
59	0xbebd1b19	-0.36934736
60	0x3f1427bd	0.57873136
61	0xbeb10ed7	-0.34581634
62	0x3ee43548	0.445719
63	0x3e80ea51	0.2517877
64	0xbdbabed2	-0.09118427
65	0xbe71c51b	-0.23610346
66	0x3eb28331	0.34865716
67	0x3f9ce87f	1.2258452
68	0x3ea6bc4c	0.32565534
69	0xbf0d3c95	-0.55170566
70	0x3ec966d2	0.39336258
71	0x3eda5c94	0.42648757
72	0xbdd526db	-0.10407802
73	0x3eaf0adf	0.3418798
74	0xbe892fd4	-0.26794302
75	0x3eaa76bb	0.3329371
76	0xbec9db52	-0.3942514
77	0x3c679c0b	0.014136325
78	0x3eb55686	0.35417575
79	0xbda04972	-0.078265086
80	0xbf197090	-0.5993738
81	0x3e2e4281	0.17017557
82	0x3c8b4e54	0.017005123
83	0x3e1c2051	0.15246703
84	0x3f3168ad	0.6930035
85	0x3e50640b	0.20350663
86	0x3e8af1a1	0.27137473
87	0x3f651a31	0.8949309
88	0x3f098a79	0.5372692
89	0x3f50e83f	0.8160438
90	0x3dc0cf2e	0.094145164
91	0x3f3f9563	0.7483732
92	0xbdabe2f4	-0.08392897
93	0x3e630a32	0.22171858
94	0x3ef8a518	0.48563457
95	0x3e7d67e2	0.2474666
96	0x3e9f6547	0.31131956
97	0x3e515d91	0.20445849
98	0x3e28e737	0.16494451
99	0xbdc1d2ee	-0.0946406
100	0x3ef41e87	0.4767954
101	0x3e80a3ae	0.25124878
102	0xbe34f0fa	-0.1767005
103	0xbba5373c	-0.005041985
104	0xbe3e91eb	-0.18610351
105	0xbe0c526f	-0.13703321
106	0xbe975716	-0.2955863
107	0x3f2903a8	0.66021204
108	0x3f05b0d6	0.52222955
109	0x3eb5c8ec	0.35504854
110	0x3f05a43d	0.5220373
111	0x3e0d8b4c	0.13822669
112	0x3e121ab8	0.14268005
113	0x3eb1b5d4	0.34709036
114	0x3ead5215	0.33851686
115	0x3e862e35	0.26207128
116	0x3eb1730d	0.3465809
117	0x3e1b9f3a	0.15197459
118	0x3e82ab9b	0.2552155
119	0x3e7f4e95	0.2493232
120	0x3e864285	0.26222625
121	0x3e1279d6	0.14304289
122	0x3ea0fd1a	0.314431
123	0x3e36a937	0.17837988
124	0x3e0cbe10	0.13744378
125	0x3eada52d	0.33915082
126	0x3eedcf59	0.46447256
127	0x3e58933d	0.21149917
128	0x3d803f64	0.06262091
129	0x3dd850b8	0.10562271
130	0x3f1f8c96	0.6232389
131	0x3f505472	0.81378853
132	0x3ec4c397	0.38430473
133	0x3eaba252	0.33522278
134	0x3ee407bf	0.4453716
135	0x3f029296	0.5100492
136	0x3e160808	0.14651501
137	0x3e61f131	0.22064663
138	0x3e315647	0.17318068
139	0x3dbb66e0	0.09150481
140	0x3e06c348	0.13160431
141	0x3e97b4a0	0.29629993
142	0x3f0cf0ac	0.55054736
143	0xbf2c24d2	-0.67243683
144	0xbc8e99bd	-0.017407293
145	0x3d23aed7	0.039961662
146	0x3e3c93bc	0.18415731
147	0x3e0e9271	0.1392305
148	0x3ece2374	0.40261424
149	0x3f82eef6	1.0229175
150	0x3e9b8154	0.30372107
151	0x3e899108	0.26868463
152	0x3f0fd3d0	0.56182575
153	0x3f09f024	0.5388205
154	0xbeba95d9	-0.3644245
155	0x3e0555a6	0.13020954
156	0xbe94944c	-0.29019392
157	0xbd94100f	-0.072296254
158	0x3edb66b1	0.42851785
159	0x3d0a00d9	0.033692215
160	0x3ed66a30	0.4187789
161	0xbd671b5a	-0.05642257
162	0xbd8f3c27	-0.06993895
163	0xbea2986a	-0.31756908
164	0x3f750c81	0.95722204
165	0x3f1430bc	0.5788686
166	0x3d5ebba8	0.05437818
167	0x3f25ac9b	0.647165
168	0x3e6a3325	0.22871073
169	0xbd18336c	-0.037158415
170	0x3f01204a	0.50439894
171	0xbd8410a2	-0.06448485
172	0xbe3498db	-0.17636435
173	0xbe3eff39	-0.18652047
174	0x3ebff0c5	0.3748838
175	0x3e1d6225	0.1536947
176	0x3f789e4c	0.9711654
177	0xbe2638e9	-0.16232647
178	0x3e9c7562	0.30558306
179	0x3f51c217	0.8193678
180	0x3ecba8e4	0.3977729
181	0x3eb02db4	0.3440987
182	0x3ebed6cd	0.37273255
183	0xbef2c650	-0.47416925
184	0x3f12443f	0.57135385
185	0xbed375a1	-0.4130068
186	0xbefdeb3e	-0.49593538
187	0x3d985d75	0.074397005
188	0x3ef61388	0.48061776
189	0xbe33cb1c	-0.17557949
190	0xbe1a66ca	-0.15078273
191	0x3ea60795	0.3242766
192	0xbe2d9a8e	-0.16953489
193	0xbd8ca908	-0.06868178
194	0xbe8950c8	-0.26819444
195	0xbe933fe2	-0.28759676
196	0xbe4705ed	-0.19435854
197	0xbd0573a8	-0.032581
198	0x3c9ff636	0.019526582
199	0xbd8f577c	-0.06999108
200	0xbdc3ae60	-0.09554744
201	0xbdaf861e	-0.08570503
202	0xbf40601c	-0.7514665
203	0x3f085bd3	0.5326511
204	0x3e02b2bf	0.12763499
205	0xbe729acc	-0.23691863
206	0x3ed8cb98	0.4234283
207	0x3ec4788f	0.3837323
208	0xbbc61164	-0.0060445536
209	0xbdc88c79	-0.09792418
210	0xbef2d40e	-0.4742741
211	0xbec8f6f3	-0.39250907
212	0x3e37cea0	0.17949915
213	0xbeac4440	-0.3364582
214	0xbef8c3ba	-0.48586828
215	0xbdb7ccc5	-0.089746036
216	0xbd07d7f4	-0.033164933
217	0xbe265a19	-0.16245307
218	0x3ed4df78	0.41576743
219	0x3f9d882d	1.2307183
220	0x3f24baf5	0.64347774
221	0x3e95c400	0.292511
222	0x3ecb0ff8	0.3966062
223	0x3eca6db5	0.39536825
224	0x3bf7241e	0.0075421473
225	0x3f3f9924	0.7484305
226	0xbe8ee2f0	-0.27907515
227	0x3f7f0431	0.9961577
228	0xbe9a2172	-0.30103642
229	0xbc19d219	-0.00938847
230	0x3ea12103	0.31470498
231	0x3e1c085f	0.15237568
232	0x3eb13a73	0.34614906
233	0x3de30d52	0.11086525
234	0xbc9af702	-0.01891661
235	0x3e3c35da	0.18379918
236	0x3da727ec	0.08161911
237	0x3e79dd80	0.24400902
238	0x3e31f4b5	0.17378505
239	0x3f1dae89	0.61594445
240	0xbf1fd41e	-0.6243304
241	0xbe57598a	-0.2103025
242	0xbe44db9d	-0.19224401
243	0x3d920d37	0.07131427
244	0x3e869948	0.2628882
245	0x3ea1ebd4	0.31625235
246	0xbe118726	-0.14211711
247	0x3deec81f	0.11659264
248	0x3ed5e1cd	0.41773835
249	0x3e4624d4	0.19349986
250	0x3e6fac5f	0.23405598
251	0x3e206e23	0.15667014
252	0xbf1fe23b	-0.62454575
253	0x3e9460c2	0.2898007
254	0x3eab01e5	0.33399883
255	0xbea936ec	-0.33049715

l1.bias f4 [8]
0	0x3f4f9e4e	0.8110093
1	0x3ee855dc	0.45378006
2	0x3f9a599e	1.2058599
3	0x3f1fd1fe	0.624298
4	0x3f920d1b	1.141025
5	0x3f48aba6	0.78386915
6	0x3f34a28d	0.7056053
7	0x3ef2e369	0.47439125

l2.weight f4 [8, 8]
0	0xbf6f8759	-0.935659
1	0x3eafe015	0.3435065
2	0x3e93cccf	0.28867194
3	0x3f12fdc7	0.57418483
4	0x3fb6a313	1.4268516
5	0x3f867adf	1.0506247
6	0xbf2ede99	-0.6830841
7	0x3d544bd4	0.051830128
8	0x3f34fa2f	0.7069425
9	0x3fb184a3	1.3868603
10	0xbe8f89a3	-0.28034696
11	0x3ee32b32	0.44368893
12	0xbf744562	-0.9541837
13	0x3f8b6f64	1.0893369
14	0x3fe10afa	1.7581475
15	0x3fd6a89d	1.6770207
16	0x3fd98f47	1.699685
17	0xbe0d7f9f	-0.13818215
18	0x3fb38954	1.4026284
19	0xbf3363d8	-0.70074224
20	0x3f10c4c2	0.5655023
21	0xbe9c8bc5	-0.30575386
22	0x3fa4b8e7	1.2868928
23	0x3f2d3c19	0.67669827
24	0xbf840792	-1.031481
25	0x3f0e3e76	0.5556406
26	0xbdc4bea1	-0.09606672
27	0x3f7de52b	0.9917781
28	0x3f9b9e6b	1.215772
29	0x3fa29b86	1.2703712
30	0xbd9f01c7	-0.07764011
31	0xbde4c1f8	-0.11169809
32	0x3e7cdb24	0.2469297
33	0x3ed35650	0.4127679
34	0xbfd91c8a	-1.6961834
35	0x3f7a87f4	0.978637
36	0x3f2798fd	0.65467817
37	0x3e9627c6	0.2932722
38	0x3fbae7bc	1.460197
39	0x3db75b7d	0.08952997
40	0xbf1a8ad6	-0.60368097
41	0x3f30723b	0.689243
42	0xbecce7c9	-0.40020588
43	0x3e94117a	0.28919584
44	0x3e839e89	0.2570689
45	0x3ee189c4	0.4405042
46	0xbf26daec	-0.651778
47	0x3faafafc	1.3357844
48	0x3f2f51bf	0.6848411
49	0x3ea869f8	0.32893348
50	0x3fbf3901	1.4939271
51	0xbf0373c4	-0.5134852
52	0x3fea2110	1.829134
53	0x3fa0f5dc	1.257503
54	0xbf370031	-0.7148467
55	0x3ea0de4d	0.31419602
56	0x3dff54a6	0.12467317
57	0x3f61bbc6	0.88177145
58	0x3deaf75c	0.11472961
59	0x3c05f527	0.008176125
60	0xbf112f5a	-0.5671288
61	0x3f0491ef	0.51785177
62	0x3f7271d2	0.94704926
63	0x3fcae565	1.5851256

l2.bias f4 [8]
0	0x3ed3200b	0.41235384
1	0x3e5cdd1c	0.21568722
2	0x3f0dcc86	0.55390203
3	0x3ece243e	0.40262026
4	0x3e9e847c	0.30960453
5	0x3da34c92	0.07973589
6	0x3e865c8a	0.26242477
7	0x3da3aad3	0.079915665

l3.weight f4 [8, 8]
0	0xbf99d083	-1.2016758
1	0x3eeaf285	0.45888153
2	0x3e7f15a2	0.24910596
3	0xbf70d0b0	-0.9406843
4	0x3efdb421	0.4955149
5	0xbe6e64ff	-0.23280714
6	0xbff0667d	-1.8781277
7	0x3ef4d778	0.4782064
8	0xbff491e7	-1.9107026
9	0x3f1b35cc	0.6062896
10	0x3ea87f21	0.32909492
11	0xbfcd1063	-1.6020626
12	0xbfcf780d	-1.6208512
13	0xbed07dfa	-0.40721112
14	0xbd7d58da	-0.061852314
15	0x3f3351dd	0.7004679
16	0x3f83011b	1.0234712
17	0xbfb74767	-1.4318665
18	0xbf1c77a5	-0.61120063
19	0x3f5921ca	0.84817183
20	0xbf9560c7	-1.1670159
21	0xbea27275	-0.3172795
22	0x3e6be80a	0.23037735
23	0xbf83f9cd	-1.0310608
24	0xbeefc77a	-0.46831876
25	0xbe823258	-0.25429034
26	0xbf5046d5	-0.8135808
27	0xbe894a00	-0.2681427
28	0xbe0b9a09	-0.13632978
29	0xbf128b82	-0.5724412
30	0xbf5fb943	-0.8739206
31	0xbf0d18aa	-0.5511576
32	0xbd9aeaf0	-0.07564342
33	0xbd52cb80	-0.051463604
34	0xbe1d4aad	-0.15360518
35	0xbe798aa5	-0.24369295
36	0xbfc99f06	-1.5751655
37	0xbe19fc87	-0.15037738
38	0x3e863e34	0.26219332
39	0x3e203413	0.15644865
40	0x3eaa26cb	0.33232722
41	0x3c6f0643	0.014588895
42	0xbfcddeaa	-1.6083577
43	0x3e5c9f5f	0.2154517
44	0x3ddc50bc	0.10757586
45	0x3efd9834	0.49530184
46	0xbf2a2bd3	-0.6647312
47	0x3e8c8907	0.27448294
48	0xbd39338c	-0.045215175
49	0x3e908bf3	0.28231773
50	0xbe121b96	-0.14268336
51	0x3e870a7f	0.26375195
52	0x3ec7ca48	0.39021516
53	0xbfe21d18	-1.7665129
54	0xbed7683c	-0.42071712
55	0xbe11139d	-0.14167638
56	0xbf0ef87e	-0.5584792
57	0xbfab950d	-1.3404862
58	0x3f342601	0.7037049
59	0xbfbc269c	-1.4699283
60	0xbf4f2375	-0.8091348
61	0xbeab188c	-0.33417165
62	0x3f264045	0.6494182
63	0xbf593df2	-0.84860146

l3.bias f4 [8]
0	0x3e3302c4	0.17481524
1	0xbbd20c59	-0.0064101634
2	0x3ef6af61	0.48180678
3	0xbf08262a	-0.53183234
4	0xbf6e04be	-0.92975986
5	0x3e198f2d	0.14996023
6	0x3eb254d0	0.34830332
7	0x3ea108cc	0.31452024
